the modelViT(
  (patch_embedding): Linear(in_features=192, out_features=256, bias=True)
  (dropout): Dropout(p=0.1, inplace=False)
  (transformer): Sequential(
    (0): tranformer_layer(
      (QKV): Linear(in_features=256, out_features=1536, bias=False)
      (fc): Linear(in_features=512, out_features=256, bias=False)
      (mlp): Sequential(
        (0): Linear(in_features=256, out_features=1024, bias=True)
        (1): GELU()
        (2): Dropout(p=0.1, inplace=False)
        (3): Linear(in_features=1024, out_features=256, bias=True)
      )
      (norm1): LayerNorm((256,), eps=1e-05, elementwise_affine=False)
      (norm2): LayerNorm((256,), eps=1e-05, elementwise_affine=False)
      (dropout1): Dropout(p=0.1, inplace=False)
      (dropout2): Dropout(p=0.0, inplace=False)
    )
    (1): tranformer_layer(
      (QKV): Linear(in_features=256, out_features=1536, bias=False)
      (fc): Linear(in_features=512, out_features=256, bias=False)
      (mlp): Sequential(
        (0): Linear(in_features=256, out_features=1024, bias=True)
        (1): GELU()
        (2): Dropout(p=0.1, inplace=False)
        (3): Linear(in_features=1024, out_features=256, bias=True)
      )
      (norm1): LayerNorm((256,), eps=1e-05, elementwise_affine=False)
      (norm2): LayerNorm((256,), eps=1e-05, elementwise_affine=False)
      (dropout1): Dropout(p=0.1, inplace=False)
      (dropout2): Dropout(p=0.0, inplace=False)
    )
    (2): tranformer_layer(
      (QKV): Linear(in_features=256, out_features=1536, bias=False)
      (fc): Linear(in_features=512, out_features=256, bias=False)
      (mlp): Sequential(
        (0): Linear(in_features=256, out_features=1024, bias=True)
        (1): GELU()
        (2): Dropout(p=0.1, inplace=False)
        (3): Linear(in_features=1024, out_features=256, bias=True)
      )
      (norm1): LayerNorm((256,), eps=1e-05, elementwise_affine=False)
      (norm2): LayerNorm((256,), eps=1e-05, elementwise_affine=False)
      (dropout1): Dropout(p=0.1, inplace=False)
      (dropout2): Dropout(p=0.0, inplace=False)
    )
    (3): tranformer_layer(
      (QKV): Linear(in_features=256, out_features=1536, bias=False)
      (fc): Linear(in_features=512, out_features=256, bias=False)
      (mlp): Sequential(
        (0): Linear(in_features=256, out_features=1024, bias=True)
        (1): GELU()
        (2): Dropout(p=0.1, inplace=False)
        (3): Linear(in_features=1024, out_features=256, bias=True)
      )
      (norm1): LayerNorm((256,), eps=1e-05, elementwise_affine=False)
      (norm2): LayerNorm((256,), eps=1e-05, elementwise_affine=False)
      (dropout1): Dropout(p=0.1, inplace=False)
      (dropout2): Dropout(p=0.0, inplace=False)
    )
    (4): tranformer_layer(
      (QKV): Linear(in_features=256, out_features=1536, bias=False)
      (fc): Linear(in_features=512, out_features=256, bias=False)
      (mlp): Sequential(
        (0): Linear(in_features=256, out_features=1024, bias=True)
        (1): GELU()
        (2): Dropout(p=0.1, inplace=False)
        (3): Linear(in_features=1024, out_features=256, bias=True)
      )
      (norm1): LayerNorm((256,), eps=1e-05, elementwise_affine=False)
      (norm2): LayerNorm((256,), eps=1e-05, elementwise_affine=False)
      (dropout1): Dropout(p=0.1, inplace=False)
      (dropout2): Dropout(p=0.0, inplace=False)
    )
    (5): tranformer_layer(
      (QKV): Linear(in_features=256, out_features=1536, bias=False)
      (fc): Linear(in_features=512, out_features=256, bias=False)
      (mlp): Sequential(
        (0): Linear(in_features=256, out_features=1024, bias=True)
        (1): GELU()
        (2): Dropout(p=0.1, inplace=False)
        (3): Linear(in_features=1024, out_features=256, bias=True)
      )
      (norm1): LayerNorm((256,), eps=1e-05, elementwise_affine=False)
      (norm2): LayerNorm((256,), eps=1e-05, elementwise_affine=False)
      (dropout1): Dropout(p=0.1, inplace=False)
      (dropout2): Dropout(p=0.0, inplace=False)
    )
  )
  (LN): LayerNorm((256,), eps=1e-05, elementwise_affine=True)
  (to_cls_token): Identity()
  (fc): Linear(in_features=256, out_features=10, bias=True)
)
the transformerSequential(
  (0): tranformer_layer(
    (QKV): Linear(in_features=256, out_features=1536, bias=False)
    (fc): Linear(in_features=512, out_features=256, bias=False)
    (mlp): Sequential(
      (0): Linear(in_features=256, out_features=1024, bias=True)
      (1): GELU()
      (2): Dropout(p=0.1, inplace=False)
      (3): Linear(in_features=1024, out_features=256, bias=True)
    )
    (norm1): LayerNorm((256,), eps=1e-05, elementwise_affine=False)
    (norm2): LayerNorm((256,), eps=1e-05, elementwise_affine=False)
    (dropout1): Dropout(p=0.1, inplace=False)
    (dropout2): Dropout(p=0.0, inplace=False)
  )
  (1): tranformer_layer(
    (QKV): Linear(in_features=256, out_features=1536, bias=False)
    (fc): Linear(in_features=512, out_features=256, bias=False)
    (mlp): Sequential(
      (0): Linear(in_features=256, out_features=1024, bias=True)
      (1): GELU()
      (2): Dropout(p=0.1, inplace=False)
      (3): Linear(in_features=1024, out_features=256, bias=True)
    )
    (norm1): LayerNorm((256,), eps=1e-05, elementwise_affine=False)
    (norm2): LayerNorm((256,), eps=1e-05, elementwise_affine=False)
    (dropout1): Dropout(p=0.1, inplace=False)
    (dropout2): Dropout(p=0.0, inplace=False)
  )
  (2): tranformer_layer(
    (QKV): Linear(in_features=256, out_features=1536, bias=False)
    (fc): Linear(in_features=512, out_features=256, bias=False)
    (mlp): Sequential(
      (0): Linear(in_features=256, out_features=1024, bias=True)
      (1): GELU()
      (2): Dropout(p=0.1, inplace=False)
      (3): Linear(in_features=1024, out_features=256, bias=True)
    )
    (norm1): LayerNorm((256,), eps=1e-05, elementwise_affine=False)
    (norm2): LayerNorm((256,), eps=1e-05, elementwise_affine=False)
    (dropout1): Dropout(p=0.1, inplace=False)
    (dropout2): Dropout(p=0.0, inplace=False)
  )
  (3): tranformer_layer(
    (QKV): Linear(in_features=256, out_features=1536, bias=False)
    (fc): Linear(in_features=512, out_features=256, bias=False)
    (mlp): Sequential(
      (0): Linear(in_features=256, out_features=1024, bias=True)
      (1): GELU()
      (2): Dropout(p=0.1, inplace=False)
      (3): Linear(in_features=1024, out_features=256, bias=True)
    )
    (norm1): LayerNorm((256,), eps=1e-05, elementwise_affine=False)
    (norm2): LayerNorm((256,), eps=1e-05, elementwise_affine=False)
    (dropout1): Dropout(p=0.1, inplace=False)
    (dropout2): Dropout(p=0.0, inplace=False)
  )
  (4): tranformer_layer(
    (QKV): Linear(in_features=256, out_features=1536, bias=False)
    (fc): Linear(in_features=512, out_features=256, bias=False)
    (mlp): Sequential(
      (0): Linear(in_features=256, out_features=1024, bias=True)
      (1): GELU()
      (2): Dropout(p=0.1, inplace=False)
      (3): Linear(in_features=1024, out_features=256, bias=True)
    )
    (norm1): LayerNorm((256,), eps=1e-05, elementwise_affine=False)
    (norm2): LayerNorm((256,), eps=1e-05, elementwise_affine=False)
    (dropout1): Dropout(p=0.1, inplace=False)
    (dropout2): Dropout(p=0.0, inplace=False)
  )
  (5): tranformer_layer(
    (QKV): Linear(in_features=256, out_features=1536, bias=False)
    (fc): Linear(in_features=512, out_features=256, bias=False)
    (mlp): Sequential(
      (0): Linear(in_features=256, out_features=1024, bias=True)
      (1): GELU()
      (2): Dropout(p=0.1, inplace=False)
      (3): Linear(in_features=1024, out_features=256, bias=True)
    )
    (norm1): LayerNorm((256,), eps=1e-05, elementwise_affine=False)
    (norm2): LayerNorm((256,), eps=1e-05, elementwise_affine=False)
    (dropout1): Dropout(p=0.1, inplace=False)
    (dropout2): Dropout(p=0.0, inplace=False)
  )
)
Adam (
Parameter Group 0
    amsgrad: False
    betas: (0.9, 0.999)
    eps: 1e-08
    lr: 0.0005
    weight_decay: 0.0005
)
Epoch 0: train loss 1.081588049020086, val loss 1.0409384459257125, val accuracy 62.71, train acc 61.378
Epoch 1: train loss 1.0664918513930575, val loss 0.9814395010471344, val accuracy 65.04, train acc 62.106
…
