the modelViT(
  (patch_embedding): Linear(in_features=192, out_features=256, bias=True)
  (dropout): Dropout(p=0.1, inplace=False)
  (transformer): Sequential(
    (0): tranformer_layer(
      (QKV): Linear(in_features=256, out_features=1536, bias=False)
      (fc): Linear(in_features=512, out_features=256, bias=False)
      (mlp): Sequential(
        (0): Linear(in_features=256, out_features=1024, bias=True)
        (1): GELU()
        (2): Dropout(p=0.1, inplace=False)
        (3): Linear(in_features=1024, out_features=256, bias=True)
      )
      (norm1): LayerNorm((256,), eps=1e-05, elementwise_affine=False)
      (norm2): LayerNorm((256,), eps=1e-05, elementwise_affine=False)
      (dropout1): Dropout(p=0.1, inplace=False)
      (dropout2): Dropout(p=0.0, inplace=False)
    )
    (1): tranformer_layer(
      (QKV): Linear(in_features=256, out_features=1536, bias=False)
      (fc): Linear(in_features=512, out_features=256, bias=False)
      (mlp): Sequential(
        (0): Linear(in_features=256, out_features=1024, bias=True)
        (1): GELU()
        (2): Dropout(p=0.1, inplace=False)
        (3): Linear(in_features=1024, out_features=256, bias=True)
      )
      (norm1): LayerNorm((256,), eps=1e-05, elementwise_affine=False)
      (norm2): LayerNorm((256,), eps=1e-05, elementwise_affine=False)
      (dropout1): Dropout(p=0.1, inplace=False)
      (dropout2): Dropout(p=0.0, inplace=False)
    )
    (2): tranformer_layer(
      (QKV): Linear(in_features=256, out_features=1536, bias=False)
      (fc): Linear(in_features=512, out_features=256, bias=False)
      (mlp): Sequential(
        (0): Linear(in_features=256, out_features=1024, bias=True)
        (1): GELU()
        (2): Dropout(p=0.1, inplace=False)
        (3): Linear(in_features=1024, out_features=256, bias=True)
      )
      (norm1): LayerNorm((256,), eps=1e-05, elementwise_affine=False)
      (norm2): LayerNorm((256,), eps=1e-05, elementwise_affine=False)
      (dropout1): Dropout(p=0.1, inplace=False)
      (dropout2): Dropout(p=0.0, inplace=False)
    )
    (3): tranformer_layer(
      (QKV): Linear(in_features=256, out_features=1536, bias=False)
      (fc): Linear(in_features=512, out_features=256, bias=False)
      (mlp): Sequential(
        (0): Linear(in_features=256, out_features=1024, bias=True)
        (1): GELU()
        (2): Dropout(p=0.1, inplace=False)
        (3): Linear(in_features=1024, out_features=256, bias=True)
      )
      (norm1): LayerNorm((256,), eps=1e-05, elementwise_affine=False)
      (norm2): LayerNorm((256,), eps=1e-05, elementwise_affine=False)
      (dropout1): Dropout(p=0.1, inplace=False)
      (dropout2): Dropout(p=0.0, inplace=False)
    )
    (4): tranformer_layer(
      (QKV): Linear(in_features=256, out_features=1536, bias=False)
      (fc): Linear(in_features=512, out_features=256, bias=False)
      (mlp): Sequential(
        (0): Linear(in_features=256, out_features=1024, bias=True)
        (1): GELU()
        (2): Dropout(p=0.1, inplace=False)
        (3): Linear(in_features=1024, out_features=256, bias=True)
      )
      (norm1): LayerNorm((256,), eps=1e-05, elementwise_affine=False)
      (norm2): LayerNorm((256,), eps=1e-05, elementwise_affine=False)
      (dropout1): Dropout(p=0.1, inplace=False)
      (dropout2): Dropout(p=0.0, inplace=False)
    )
    (5): tranformer_layer(
      (QKV): Linear(in_features=256, out_features=1536, bias=False)
      (fc): Linear(in_features=512, out_features=256, bias=False)
      (mlp): Sequential(
        (0): Linear(in_features=256, out_features=1024, bias=True)
        (1): GELU()
        (2): Dropout(p=0.1, inplace=False)
        (3): Linear(in_features=1024, out_features=256, bias=True)
      )
      (norm1): LayerNorm((256,), eps=1e-05, elementwise_affine=False)
      (norm2): LayerNorm((256,), eps=1e-05, elementwise_affine=False)
      (dropout1): Dropout(p=0.1, inplace=False)
      (dropout2): Dropout(p=0.0, inplace=False)
    )
  )
  (LN): LayerNorm((256,), eps=1e-05, elementwise_affine=True)
  (to_cls_token): Identity()
  (fc): Linear(in_features=256, out_features=10, bias=True)
)
the transformerSequential(
  (0): tranformer_layer(
    (QKV): Linear(in_features=256, out_features=1536, bias=False)
    (fc): Linear(in_features=512, out_features=256, bias=False)
    (mlp): Sequential(
      (0): Linear(in_features=256, out_features=1024, bias=True)
      (1): GELU()
      (2): Dropout(p=0.1, inplace=False)
      (3): Linear(in_features=1024, out_features=256, bias=True)
    )
    (norm1): LayerNorm((256,), eps=1e-05, elementwise_affine=False)
    (norm2): LayerNorm((256,), eps=1e-05, elementwise_affine=False)
    (dropout1): Dropout(p=0.1, inplace=False)
    (dropout2): Dropout(p=0.0, inplace=False)
  )
  (1): tranformer_layer(
    (QKV): Linear(in_features=256, out_features=1536, bias=False)
    (fc): Linear(in_features=512, out_features=256, bias=False)
    (mlp): Sequential(
      (0): Linear(in_features=256, out_features=1024, bias=True)
      (1): GELU()
      (2): Dropout(p=0.1, inplace=False)
      (3): Linear(in_features=1024, out_features=256, bias=True)
    )
    (norm1): LayerNorm((256,), eps=1e-05, elementwise_affine=False)
    (norm2): LayerNorm((256,), eps=1e-05, elementwise_affine=False)
    (dropout1): Dropout(p=0.1, inplace=False)
    (dropout2): Dropout(p=0.0, inplace=False)
  )
  (2): tranformer_layer(
    (QKV): Linear(in_features=256, out_features=1536, bias=False)
    (fc): Linear(in_features=512, out_features=256, bias=False)
    (mlp): Sequential(
      (0): Linear(in_features=256, out_features=1024, bias=True)
      (1): GELU()
      (2): Dropout(p=0.1, inplace=False)
      (3): Linear(in_features=1024, out_features=256, bias=True)
    )
    (norm1): LayerNorm((256,), eps=1e-05, elementwise_affine=False)
    (norm2): LayerNorm((256,), eps=1e-05, elementwise_affine=False)
    (dropout1): Dropout(p=0.1, inplace=False)
    (dropout2): Dropout(p=0.0, inplace=False)
  )
  (3): tranformer_layer(
    (QKV): Linear(in_features=256, out_features=1536, bias=False)
    (fc): Linear(in_features=512, out_features=256, bias=False)
    (mlp): Sequential(
      (0): Linear(in_features=256, out_features=1024, bias=True)
      (1): GELU()
      (2): Dropout(p=0.1, inplace=False)
      (3): Linear(in_features=1024, out_features=256, bias=True)
    )
    (norm1): LayerNorm((256,), eps=1e-05, elementwise_affine=False)
    (norm2): LayerNorm((256,), eps=1e-05, elementwise_affine=False)
    (dropout1): Dropout(p=0.1, inplace=False)
    (dropout2): Dropout(p=0.0, inplace=False)
  )
  (4): tranformer_layer(
    (QKV): Linear(in_features=256, out_features=1536, bias=False)
    (fc): Linear(in_features=512, out_features=256, bias=False)
    (mlp): Sequential(
      (0): Linear(in_features=256, out_features=1024, bias=True)
      (1): GELU()
      (2): Dropout(p=0.1, inplace=False)
      (3): Linear(in_features=1024, out_features=256, bias=True)
    )
    (norm1): LayerNorm((256,), eps=1e-05, elementwise_affine=False)
    (norm2): LayerNorm((256,), eps=1e-05, elementwise_affine=False)
    (dropout1): Dropout(p=0.1, inplace=False)
    (dropout2): Dropout(p=0.0, inplace=False)
  )
  (5): tranformer_layer(
    (QKV): Linear(in_features=256, out_features=1536, bias=False)
    (fc): Linear(in_features=512, out_features=256, bias=False)
    (mlp): Sequential(
      (0): Linear(in_features=256, out_features=1024, bias=True)
      (1): GELU()
      (2): Dropout(p=0.1, inplace=False)
      (3): Linear(in_features=1024, out_features=256, bias=True)
    )
    (norm1): LayerNorm((256,), eps=1e-05, elementwise_affine=False)
    (norm2): LayerNorm((256,), eps=1e-05, elementwise_affine=False)
    (dropout1): Dropout(p=0.1, inplace=False)
    (dropout2): Dropout(p=0.0, inplace=False)
  )
)
Adam (
Parameter Group 0
    amsgrad: False
    betas: (0.9, 0.999)
    eps: 1e-08
    lr: 0.0001
    weight_decay: 0.0005
)
Epoch 0: train loss 0.8939251343206484, val loss 0.8825432866811752, val accuracy 68.77, train acc 68.206
Epoch 1: train loss 0.8685702286204513, val loss 0.8620001792907714, val accuracy 69.41, train acc 69.034
…
