the modelViT(
  (patch_embedding): Linear(in_features=192, out_features=256, bias=True)
  (dropout): Dropout(p=0.1, inplace=False)
  (transformer): AttentionLayers(
    (layers): ModuleList(
      (0): ModuleList(
        (0): ModuleList(
          (0): LayerNorm(
            (ln): LayerNorm((256,), eps=1e-05, elementwise_affine=False)
          )
          (1): None
          (2): None
        )
        (1): Attention(
          (to_q): Linear(in_features=256, out_features=512, bias=False)
          (to_k): Linear(in_features=256, out_features=512, bias=False)
          (to_v): Linear(in_features=256, out_features=512, bias=False)
          (attend): Attend(
            (attn_dropout): Dropout(p=0.1, inplace=False)
          )
          (to_out): Linear(in_features=512, out_features=256, bias=False)
        )
        (2): Residual()
      )
      (1): ModuleList(
        (0): ModuleList(
          (0): LayerNorm(
            (ln): LayerNorm((256,), eps=1e-05, elementwise_affine=False)
          )
          (1): None
          (2): None
        )
        (1): FeedForward(
          (ff): Sequential(
            (0): Sequential(
              (0): Linear(in_features=256, out_features=1024, bias=True)
              (1): MyGELU()
            )
            (1): Dropout(p=0.0, inplace=False)
            (2): Linear(in_features=1024, out_features=256, bias=True)
          )
        )
        (2): Residual()
      )
      (2): ModuleList(
        (0): ModuleList(
          (0): LayerNorm(
            (ln): LayerNorm((256,), eps=1e-05, elementwise_affine=False)
          )
          (1): None
          (2): None
        )
        (1): Attention(
          (to_q): Linear(in_features=256, out_features=512, bias=False)
          (to_k): Linear(in_features=256, out_features=512, bias=False)
          (to_v): Linear(in_features=256, out_features=512, bias=False)
          (attend): Attend(
            (attn_dropout): Dropout(p=0.1, inplace=False)
          )
          (to_out): Linear(in_features=512, out_features=256, bias=False)
        )
        (2): Residual()
      )
      (3): ModuleList(
        (0): ModuleList(
          (0): LayerNorm(
            (ln): LayerNorm((256,), eps=1e-05, elementwise_affine=False)
          )
          (1): None
          (2): None
        )
        (1): FeedForward(
          (ff): Sequential(
            (0): Sequential(
              (0): Linear(in_features=256, out_features=1024, bias=True)
              (1): MyGELU()
            )
            (1): Dropout(p=0.0, inplace=False)
            (2): Linear(in_features=1024, out_features=256, bias=True)
          )
        )
        (2): Residual()
      )
      (4): ModuleList(
        (0): ModuleList(
          (0): LayerNorm(
            (ln): LayerNorm((256,), eps=1e-05, elementwise_affine=False)
          )
          (1): None
          (2): None
        )
        (1): Attention(
          (to_q): Linear(in_features=256, out_features=512, bias=False)
          (to_k): Linear(in_features=256, out_features=512, bias=False)
          (to_v): Linear(in_features=256, out_features=512, bias=False)
          (attend): Attend(
            (attn_dropout): Dropout(p=0.1, inplace=False)
          )
          (to_out): Linear(in_features=512, out_features=256, bias=False)
        )
        (2): Residual()
      )
      (5): ModuleList(
        (0): ModuleList(
          (0): LayerNorm(
            (ln): LayerNorm((256,), eps=1e-05, elementwise_affine=False)
          )
          (1): None
          (2): None
        )
        (1): FeedForward(
          (ff): Sequential(
            (0): Sequential(
              (0): Linear(in_features=256, out_features=1024, bias=True)
              (1): MyGELU()
            )
            (1): Dropout(p=0.0, inplace=False)
            (2): Linear(in_features=1024, out_features=256, bias=True)
          )
        )
        (2): Residual()
      )
      (6): ModuleList(
        (0): ModuleList(
          (0): LayerNorm(
            (ln): LayerNorm((256,), eps=1e-05, elementwise_affine=False)
          )
          (1): None
          (2): None
        )
        (1): Attention(
          (to_q): Linear(in_features=256, out_features=512, bias=False)
          (to_k): Linear(in_features=256, out_features=512, bias=False)
          (to_v): Linear(in_features=256, out_features=512, bias=False)
          (attend): Attend(
            (attn_dropout): Dropout(p=0.1, inplace=False)
          )
          (to_out): Linear(in_features=512, out_features=256, bias=False)
        )
        (2): Residual()
      )
      (7): ModuleList(
        (0): ModuleList(
          (0): LayerNorm(
            (ln): LayerNorm((256,), eps=1e-05, elementwise_affine=False)
          )
          (1): None
          (2): None
        )
        (1): FeedForward(
          (ff): Sequential(
            (0): Sequential(
              (0): Linear(in_features=256, out_features=1024, bias=True)
              (1): MyGELU()
            )
            (1): Dropout(p=0.0, inplace=False)
            (2): Linear(in_features=1024, out_features=256, bias=True)
          )
        )
        (2): Residual()
      )
      (8): ModuleList(
        (0): ModuleList(
          (0): LayerNorm(
            (ln): LayerNorm((256,), eps=1e-05, elementwise_affine=False)
          )
          (1): None
          (2): None
        )
        (1): Attention(
          (to_q): Linear(in_features=256, out_features=512, bias=False)
          (to_k): Linear(in_features=256, out_features=512, bias=False)
          (to_v): Linear(in_features=256, out_features=512, bias=False)
          (attend): Attend(
            (attn_dropout): Dropout(p=0.1, inplace=False)
          )
          (to_out): Linear(in_features=512, out_features=256, bias=False)
        )
        (2): Residual()
      )
      (9): ModuleList(
        (0): ModuleList(
          (0): LayerNorm(
            (ln): LayerNorm((256,), eps=1e-05, elementwise_affine=False)
          )
          (1): None
          (2): None
        )
        (1): FeedForward(
          (ff): Sequential(
            (0): Sequential(
              (0): Linear(in_features=256, out_features=1024, bias=True)
              (1): MyGELU()
            )
            (1): Dropout(p=0.0, inplace=False)
            (2): Linear(in_features=1024, out_features=256, bias=True)
          )
        )
        (2): Residual()
      )
      (10): ModuleList(
        (0): ModuleList(
          (0): LayerNorm(
            (ln): LayerNorm((256,), eps=1e-05, elementwise_affine=False)
          )
          (1): None
          (2): None
        )
        (1): Attention(
          (to_q): Linear(in_features=256, out_features=512, bias=False)
          (to_k): Linear(in_features=256, out_features=512, bias=False)
          (to_v): Linear(in_features=256, out_features=512, bias=False)
          (attend): Attend(
            (attn_dropout): Dropout(p=0.1, inplace=False)
          )
          (to_out): Linear(in_features=512, out_features=256, bias=False)
        )
        (2): Residual()
      )
      (11): ModuleList(
        (0): ModuleList(
          (0): LayerNorm(
            (ln): LayerNorm((256,), eps=1e-05, elementwise_affine=False)
          )
          (1): None
          (2): None
        )
        (1): FeedForward(
          (ff): Sequential(
            (0): Sequential(
              (0): Linear(in_features=256, out_features=1024, bias=True)
              (1): MyGELU()
            )
            (1): Dropout(p=0.0, inplace=False)
            (2): Linear(in_features=1024, out_features=256, bias=True)
          )
        )
        (2): Residual()
      )
    )
    (adaptive_mlp): Identity()
    (final_norm): LayerNorm(
      (ln): LayerNorm((256,), eps=1e-05, elementwise_affine=False)
    )
    (skip_combines): ModuleList(
      (0): None
      (1): None
      (2): None
      (3): None
      (4): None
      (5): None
      (6): None
      (7): None
      (8): None
      (9): None
      (10): None
      (11): None
    )
  )
  (LN): LayerNorm((256,), eps=1e-05, elementwise_affine=True)
  (to_cls_token): Identity()
  (fc): Linear(in_features=256, out_features=10, bias=True)
)
the transformerAttentionLayers(
  (layers): ModuleList(
    (0): ModuleList(
      (0): ModuleList(
        (0): LayerNorm(
          (ln): LayerNorm((256,), eps=1e-05, elementwise_affine=False)
        )
        (1): None
        (2): None
      )
      (1): Attention(
        (to_q): Linear(in_features=256, out_features=512, bias=False)
        (to_k): Linear(in_features=256, out_features=512, bias=False)
        (to_v): Linear(in_features=256, out_features=512, bias=False)
        (attend): Attend(
          (attn_dropout): Dropout(p=0.1, inplace=False)
        )
        (to_out): Linear(in_features=512, out_features=256, bias=False)
      )
      (2): Residual()
    )
    (1): ModuleList(
      (0): ModuleList(
        (0): LayerNorm(
          (ln): LayerNorm((256,), eps=1e-05, elementwise_affine=False)
        )
        (1): None
        (2): None
      )
      (1): FeedForward(
        (ff): Sequential(
          (0): Sequential(
            (0): Linear(in_features=256, out_features=1024, bias=True)
            (1): MyGELU()
          )
          (1): Dropout(p=0.0, inplace=False)
          (2): Linear(in_features=1024, out_features=256, bias=True)
        )
      )
      (2): Residual()
    )
    (2): ModuleList(
      (0): ModuleList(
        (0): LayerNorm(
          (ln): LayerNorm((256,), eps=1e-05, elementwise_affine=False)
        )
        (1): None
        (2): None
      )
      (1): Attention(
        (to_q): Linear(in_features=256, out_features=512, bias=False)
        (to_k): Linear(in_features=256, out_features=512, bias=False)
        (to_v): Linear(in_features=256, out_features=512, bias=False)
        (attend): Attend(
          (attn_dropout): Dropout(p=0.1, inplace=False)
        )
        (to_out): Linear(in_features=512, out_features=256, bias=False)
      )
      (2): Residual()
    )
    (3): ModuleList(
      (0): ModuleList(
        (0): LayerNorm(
          (ln): LayerNorm((256,), eps=1e-05, elementwise_affine=False)
        )
        (1): None
        (2): None
      )
      (1): FeedForward(
        (ff): Sequential(
          (0): Sequential(
            (0): Linear(in_features=256, out_features=1024, bias=True)
            (1): MyGELU()
          )
          (1): Dropout(p=0.0, inplace=False)
          (2): Linear(in_features=1024, out_features=256, bias=True)
        )
      )
      (2): Residual()
    )
    (4): ModuleList(
      (0): ModuleList(
        (0): LayerNorm(
          (ln): LayerNorm((256,), eps=1e-05, elementwise_affine=False)
        )
        (1): None
        (2): None
      )
      (1): Attention(
        (to_q): Linear(in_features=256, out_features=512, bias=False)
        (to_k): Linear(in_features=256, out_features=512, bias=False)
        (to_v): Linear(in_features=256, out_features=512, bias=False)
        (attend): Attend(
          (attn_dropout): Dropout(p=0.1, inplace=False)
        )
        (to_out): Linear(in_features=512, out_features=256, bias=False)
      )
      (2): Residual()
    )
    (5): ModuleList(
      (0): ModuleList(
        (0): LayerNorm(
          (ln): LayerNorm((256,), eps=1e-05, elementwise_affine=False)
        )
        (1): None
        (2): None
      )
      (1): FeedForward(
        (ff): Sequential(
          (0): Sequential(
            (0): Linear(in_features=256, out_features=1024, bias=True)
            (1): MyGELU()
          )
          (1): Dropout(p=0.0, inplace=False)
          (2): Linear(in_features=1024, out_features=256, bias=True)
        )
      )
      (2): Residual()
    )
    (6): ModuleList(
      (0): ModuleList(
        (0): LayerNorm(
          (ln): LayerNorm((256,), eps=1e-05, elementwise_affine=False)
        )
        (1): None
        (2): None
      )
      (1): Attention(
        (to_q): Linear(in_features=256, out_features=512, bias=False)
        (to_k): Linear(in_features=256, out_features=512, bias=False)
        (to_v): Linear(in_features=256, out_features=512, bias=False)
        (attend): Attend(
          (attn_dropout): Dropout(p=0.1, inplace=False)
        )
        (to_out): Linear(in_features=512, out_features=256, bias=False)
      )
      (2): Residual()
    )
    (7): ModuleList(
      (0): ModuleList(
        (0): LayerNorm(
          (ln): LayerNorm((256,), eps=1e-05, elementwise_affine=False)
        )
        (1): None
        (2): None
      )
      (1): FeedForward(
        (ff): Sequential(
          (0): Sequential(
            (0): Linear(in_features=256, out_features=1024, bias=True)
            (1): MyGELU()
          )
          (1): Dropout(p=0.0, inplace=False)
          (2): Linear(in_features=1024, out_features=256, bias=True)
        )
      )
      (2): Residual()
    )
    (8): ModuleList(
      (0): ModuleList(
        (0): LayerNorm(
          (ln): LayerNorm((256,), eps=1e-05, elementwise_affine=False)
        )
        (1): None
        (2): None
      )
      (1): Attention(
        (to_q): Linear(in_features=256, out_features=512, bias=False)
        (to_k): Linear(in_features=256, out_features=512, bias=False)
        (to_v): Linear(in_features=256, out_features=512, bias=False)
        (attend): Attend(
          (attn_dropout): Dropout(p=0.1, inplace=False)
        )
        (to_out): Linear(in_features=512, out_features=256, bias=False)
      )
      (2): Residual()
    )
    (9): ModuleList(
      (0): ModuleList(
        (0): LayerNorm(
          (ln): LayerNorm((256,), eps=1e-05, elementwise_affine=False)
        )
        (1): None
        (2): None
      )
      (1): FeedForward(
        (ff): Sequential(
          (0): Sequential(
            (0): Linear(in_features=256, out_features=1024, bias=True)
            (1): MyGELU()
          )
          (1): Dropout(p=0.0, inplace=False)
          (2): Linear(in_features=1024, out_features=256, bias=True)
        )
      )
      (2): Residual()
    )
    (10): ModuleList(
      (0): ModuleList(
        (0): LayerNorm(
          (ln): LayerNorm((256,), eps=1e-05, elementwise_affine=False)
        )
        (1): None
        (2): None
      )
      (1): Attention(
        (to_q): Linear(in_features=256, out_features=512, bias=False)
        (to_k): Linear(in_features=256, out_features=512, bias=False)
        (to_v): Linear(in_features=256, out_features=512, bias=False)
        (attend): Attend(
          (attn_dropout): Dropout(p=0.1, inplace=False)
        )
        (to_out): Linear(in_features=512, out_features=256, bias=False)
      )
      (2): Residual()
    )
    (11): ModuleList(
      (0): ModuleList(
        (0): LayerNorm(
          (ln): LayerNorm((256,), eps=1e-05, elementwise_affine=False)
        )
        (1): None
        (2): None
      )
      (1): FeedForward(
        (ff): Sequential(
          (0): Sequential(
            (0): Linear(in_features=256, out_features=1024, bias=True)
            (1): MyGELU()
          )
          (1): Dropout(p=0.0, inplace=False)
          (2): Linear(in_features=1024, out_features=256, bias=True)
        )
      )
      (2): Residual()
    )
  )
  (adaptive_mlp): Identity()
  (final_norm): LayerNorm(
    (ln): LayerNorm((256,), eps=1e-05, elementwise_affine=False)
  )
  (skip_combines): ModuleList(
    (0): None
    (1): None
    (2): None
    (3): None
    (4): None
    (5): None
    (6): None
    (7): None
    (8): None
    (9): None
    (10): None
    (11): None
  )
)
Adam (
Parameter Group 0
    amsgrad: False
    betas: (0.9, 0.999)
    eps: 1e-08
    lr: 5e-05
    weight_decay: 0.0005
)
Epoch 0: train loss 0.6595866573708398, val loss 0.8304125070571899, val accuracy 71.82, train acc 76.506
…
